…
<p>View all the layers of the network using the Keras <a href="https://www.tensorflow.org/api_docs/python/tf/keras/Model#summary"><code translate="no" dir="ltr">Model.summary</code></a> method:</p>
<pre class="prettyprint lang-python" translate="no" dir="ltr"><code translate="no" dir="ltr">model.summary()
</code></pre>
<pre class="tfo-notebook-code-cell-output" translate="no" dir="ltr">
Model&colon; &quot;sequential&quot;
_________________________________________________________________
 Layer (type)                Output Shape              Param #   
=================================================================
 rescaling_1 (Rescaling)     (None, 180, 180, 3)       0         
                                                                 
 conv2d (Conv2D)             (None, 180, 180, 16)      448       
                                                                 
 max_pooling2d (MaxPooling2  (None, 90, 90, 16)        0         
 D)                                                              
                                                                 
 conv2d_1 (Conv2D)           (None, 90, 90, 32)        4640      
                                                                 
 max_pooling2d_1 (MaxPoolin  (None, 45, 45, 32)        0         
 g2D)                                                            
                                                                 
 conv2d_2 (Conv2D)           (None, 45, 45, 64)        18496     
                                                                 
 max_pooling2d_2 (MaxPoolin  (None, 22, 22, 64)        0         
 g2D)                                                            
                                                                 
 flatten (Flatten)           (None, 30976)             0         
                                                                 
 dense (Dense)               (None, 128)               3965056   
                                                                 
 dense_1 (Dense)             (None, 5)                 645       
                                                                 
=================================================================
Total params&colon; 3989285 (15.22 MB)
Trainable params&colon; 3989285 (15.22 MB)
Non-trainable params&colon; 0 (0.00 Byte)
_________________________________________________________________
</pre>

<h3 id="train_the_model" data-text="Train the model">Train the model</h3>
…
<pre class="prettyprint lang-python" translate="no" dir="ltr"><code translate="no" dir="ltr">model.compile(optimizer=&#39;adam&#39;,
              loss=tf.keras.losses.SparseCategoricalCrossentropy(from_logits=True),
              metrics=[&#39;accuracy&#39;])
</code></pre><pre class="prettyprint lang-python" translate="no" dir="ltr"><code translate="no" dir="ltr">model.summary()
</code></pre>
<pre class="tfo-notebook-code-cell-output" translate="no" dir="ltr">
Model&colon; &quot;sequential_2&quot;
_________________________________________________________________
 Layer (type)                Output Shape              Param #   
=================================================================
 sequential_1 (Sequential)   (None, 180, 180, 3)       0         
                                                                 
 rescaling_2 (Rescaling)     (None, 180, 180, 3)       0         
                                                                 
 conv2d_3 (Conv2D)           (None, 180, 180, 16)      448       
                                                                 
 max_pooling2d_3 (MaxPoolin  (None, 90, 90, 16)        0         
 g2D)                                                            
                                                                 
 conv2d_4 (Conv2D)           (None, 90, 90, 32)        4640      
                                                                 
 max_pooling2d_4 (MaxPoolin  (None, 45, 45, 32)        0         
 g2D)                                                            
                                                                 
 conv2d_5 (Conv2D)           (None, 45, 45, 64)        18496     
                                                                 
 max_pooling2d_5 (MaxPoolin  (None, 22, 22, 64)        0         
 g2D)                                                            
                                                                 
 dropout (Dropout)           (None, 22, 22, 64)        0         
                                                                 
 flatten_1 (Flatten)         (None, 30976)             0         
                                                                 
 dense_2 (Dense)             (None, 128)               3965056   
                                                                 
 outputs (Dense)             (None, 5)                 645       
                                                                 
=================================================================
Total params&colon; 3989285 (15.22 MB)
Trainable params&colon; 3989285 (15.22 MB)
Non-trainable params&colon; 0 (0.00 Byte)
_________________________________________________________________
</pre>
<pre class="prettyprint lang-python" translate="no" dir="ltr"><code translate="no" dir="ltr">epochs = 15
…
