…
and validation accuracy for each training epoch, pass the metrics argument to
Model.compile.
model.compile(optimizer='adam',
              loss=tf.keras.losses.SparseCategoricalCrossentropy
(from_logits=True),
              metrics=['accuracy'])
**** Model summary ****
View all the layers of the network using the Keras Model.summary method:
model.summary()
Model&colon; "sequential"
_________________________________________________________________
 Layer (type)                Output Shape              Param #
=================================================================
 rescaling_1 (Rescaling)     (None, 180, 180, 3)       0

 conv2d (Conv2D)             (None, 180, 180, 16)      448

 max_pooling2d (MaxPooling2  (None, 90, 90, 16)        0
 D)

 conv2d_1 (Conv2D)           (None, 90, 90, 32)        4640

 max_pooling2d_1 (MaxPoolin  (None, 45, 45, 32)        0
 g2D)

 conv2d_2 (Conv2D)           (None, 45, 45, 64)        18496

 max_pooling2d_2 (MaxPoolin  (None, 22, 22, 64)        0
 g2D)

 flatten (Flatten)           (None, 30976)             0

 dense (Dense)               (None, 128)               3965056

 dense_1 (Dense)             (None, 5)                 645

=================================================================
Total params&colon; 3989285 (15.22 MB)
Trainable params&colon; 3989285 (15.22 MB)
Non-trainable params&colon; 0 (0.00 Byte)
_________________________________________________________________
**** Train the model ****
Train the model for 10 epochs with the Keras Model.fit method:
epochs=10
history = model.fit(
  train_ds,
  validation_data=val_ds,
…
  layers.MaxPooling2D(),
  layers.Dropout(0.2),
  layers.Flatten(),
  layers.Dense(128, activation='relu'),
  layers.Dense(num_classes, name="outputs")
])
***** Compile and train the model *****
model.compile(optimizer='adam',
              loss=tf.keras.losses.SparseCategoricalCrossentropy
(from_logits=True),
              metrics=['accuracy'])
model.summary()
Model&colon; "sequential_2"
_________________________________________________________________
 Layer (type)                Output Shape              Param #
=================================================================
 sequential_1 (Sequential)   (None, 180, 180, 3)       0

 rescaling_2 (Rescaling)     (None, 180, 180, 3)       0

 conv2d_3 (Conv2D)           (None, 180, 180, 16)      448

 max_pooling2d_3 (MaxPoolin  (None, 90, 90, 16)        0
 g2D)

 conv2d_4 (Conv2D)           (None, 90, 90, 32)        4640

 max_pooling2d_4 (MaxPoolin  (None, 45, 45, 32)        0
 g2D)

 conv2d_5 (Conv2D)           (None, 45, 45, 64)        18496

 max_pooling2d_5 (MaxPoolin  (None, 22, 22, 64)        0
 g2D)

 dropout (Dropout)           (None, 22, 22, 64)        0

 flatten_1 (Flatten)         (None, 30976)             0

 dense_2 (Dense)             (None, 128)               3965056

 outputs (Dense)             (None, 5)                 645

=================================================================
Total params&colon; 3989285 (15.22 MB)
Trainable params&colon; 3989285 (15.22 MB)
Non-trainable params&colon; 0 (0.00 Byte)
_________________________________________________________________
epochs = 15
history = model.fit(
  train_ds,
  validation_data=val_ds,
  epochs=epochs
)
Epoch 1/15
2023-07-27 06&colon;06&colon;59.864648&colon; E tensorflow/core/grappler/
…
